…
ann_file: data/ucf-crime/ucf-crime_ground_truth.json
glance_file: data/ucf-crime/ucf_glance_annotations.csv
lr: 0.0001
wd: 5.0e-05
batch_size: 64
max_epoch: 1500
dropout: 0.7
quantize_size: 200
sample: resize
evaluate_freq: 5
evaluate_min_step: 0
metrics: AUC
min_mining_step: 50
sigma: 0.1
alpha: 0.9
gpu_id: 0
run_info: GlanceVAD
log_path: ./ckpt/ucf-crime/log/GlanceVAD
model_path: ./ckpt/ucf-crime/model/GlanceVAD
output_path: ./ckpt/ucf-crime/output/GlanceVAD
device: !!python/object/apply:torch.device
- cuda
- 0




**********

==========
URDMU(
  (embedding): Temporal(
    (conv_1): Sequential(
      (0): Conv1d(1024, 512, kernel_size=(3,), stride=(1,), padding=(1,))
      (1): ReLU()
    )
  )
  (self_attn): Transformer(
    (layers): ModuleList(
      (0): ModuleList(
        (0): PreNorm(
          (norm): LayerNorm((512,), eps=1e-05, elementwise_affine=True)
          (fn): Attention(
            (attend): Softmax(dim=-1)
            (to_qkv): Linear(in_features=512, out_features=2048, bias=False)
            (to_out): Sequential(
              (0): Linear(in_features=1024, out_features=512, bias=True)
              (1): Dropout(p=0.5, inplace=False)
            )
          )
        )
        (1): PreNorm(
          (norm): LayerNorm((512,), eps=1e-05, elementwise_affine=True)
          (fn): FeedForward(
            (net): Sequential(
              (0): Linear(in_features=512, out_features=512, bias=True)
              (1): GELU(approximate='none')
              (2): Dropout(p=0.5, inplace=False)
              (3): Linear(in_features=512, out_features=512, bias=True)
              (4): Dropout(p=0.5, inplace=False)
            )
          )
        )
      )
      (1): ModuleList(
        (0): PreNorm(
          (norm): LayerNorm((512,), eps=1e-05, elementwise_affine=True)
          (fn): Attention(
            (attend): Softmax(dim=-1)
            (to_qkv): Linear(in_features=512, out_features=2048, bias=False)
            (to_out): Sequential(
              (0): Linear(in_features=1024, out_features=512, bias=True)
              (1): Dropout(p=0.5, inplace=False)
            )
          )
        )
        (1): PreNorm(
          (norm): LayerNorm((512,), eps=1e-05, elementwise_affine=True)
          (fn): FeedForward(
            (net): Sequential(
              (0): Linear(in_features=512, out_features=512, bias=True)
              (1): GELU(approximate='none')
              (2): Dropout(p=0.5, inplace=False)
              (3): Linear(in_features=512, out_features=512, bias=True)
              (4): Dropout(p=0.5, inplace=False)
            )
          )
        )
      )
    )
  )
  (triplet): TripletMarginLoss()
  (cls_head): ADCLS_head(
    (mlp): Sequential(
      (0): Linear(in_features=1024, out_features=128, bias=True)
      (1): ReLU()
      (2): Linear(in_features=128, out_features=1, bias=True)
      (3): Sigmoid()
    )
  )
  (Amemory): Memory_Unit(
    (sig): Sigmoid()
  )
  (Nmemory): Memory_Unit(
    (sig): Sigmoid()
  )
  (encoder_mu): Sequential(
    (0): Linear(in_features=512, out_features=512, bias=True)
  )
  (encoder_var): Sequential(
    (0): Linear(in_features=512, out_features=512, bias=True)
  )
  (relu): ReLU()
  (bce): BCELoss()
)
==========


        [1m[35mVideo Anomaly Detection[0m
            - dataset:	 [4m[1m[97mucf-crime[0m
            - description:	 [1m[32mGlanceVAD[0m
            - initial AUC score: 49.474 %
            - initial ANO score: 44.271 %
            - initial FAR: 100.000 %
            - initial learning rate: 0.0001
…
